…
      "outputs": [
        {
          "output_type": "stream",
          "name": "stdout",
          "text": [
            "Model: \"model\"\n",
            "_________________________________________________________________\n",
            " Layer (type)                Output Shape              Param #   \n",
            "=================================================================\n",
            " input_1 (InputLayer)        [(None, 180, 180, 3)]     0         \n",
            "                                                                 \n",
            " sequential (Sequential)     (None, 180, 180, 3)       0         \n",
            "                                                                 \n",
            " rescaling (Rescaling)       (None, 180, 180, 3)       0         \n",
            "                                                                 \n",
            " conv2d (Conv2D)             (None, 178, 178, 32)      896       \n",
            "                                                                 \n",
            " batch_normalization (BatchN  (None, 178, 178, 32)     128       \n",
            " ormalization)                                                   \n",
            "                                                                 \n",
            " activation (Activation)     (None, 178, 178, 32)      0         \n",
            "                                                                 \n",
            " max_pooling2d (MaxPooling2D  (None, 89, 89, 32)       0         \n",
            " )                                                               \n",
            "                                                                 \n",
            " conv2d_1 (Conv2D)           (None, 87, 87, 64)        18496     \n",
            "                                                                 \n",
            " batch_normalization_1 (Batc  (None, 87, 87, 64)       256       \n",
            " hNormalization)                                                 \n",
            "                                                                 \n",
            " activation_1 (Activation)   (None, 87, 87, 64)        0         \n",
            "                                                                 \n",
            " max_pooling2d_1 (MaxPooling  (None, 43, 43, 64)       0         \n",
            " 2D)                                                             \n",
            "                                                                 \n",
            " conv2d_2 (Conv2D)           (None, 41, 41, 128)       73856     \n",
            "                                                                 \n",
            " batch_normalization_2 (Batc  (None, 41, 41, 128)      512       \n",
            " hNormalization)                                                 \n",
            "                                                                 \n",
            " activation_2 (Activation)   (None, 41, 41, 128)       0         \n",
            "                                                                 \n",
            " max_pooling2d_2 (MaxPooling  (None, 20, 20, 128)      0         \n",
            " 2D)                                                             \n",
            "                                                                 \n",
            " conv2d_3 (Conv2D)           (None, 18, 18, 256)       295168    \n",
            "                                                                 \n",
            " batch_normalization_3 (Batc  (None, 18, 18, 256)      1024      \n",
            " hNormalization)                                                 \n",
            "                                                                 \n",
            " activation_3 (Activation)   (None, 18, 18, 256)       0         \n",
            "                                                                 \n",
            " max_pooling2d_3 (MaxPooling  (None, 9, 9, 256)        0         \n",
            " 2D)                                                             \n",
            "                                                                 \n",
            " conv2d_4 (Conv2D)           (None, 7, 7, 256)         590080    \n",
            "                                                                 \n",
            " batch_normalization_4 (Batc  (None, 7, 7, 256)        1024      \n",
            " hNormalization)                                                 \n",
            "                                                                 \n",
            " activation_4 (Activation)   (None, 7, 7, 256)         0         \n",
            "                                                                 \n",
            " max_pooling2d_4 (MaxPooling  (None, 3, 3, 256)        0         \n",
            " 2D)                                                             \n",
            "                                                                 \n",
            " flatten (Flatten)           (None, 2304)              0         \n",
            "                                                                 \n",
            " dropout (Dropout)           (None, 2304)              0         \n",
            "                                                                 \n",
            " dense (Dense)               (None, 1)                 2305      \n",
            "                                                                 \n",
            "=================================================================\n",
            "Total params: 983,745\n",
            "Trainable params: 982,273\n",
            "Non-trainable params: 1,472\n",
            "_________________________________________________________________\n"
          ]
        }
…
